# parameters
nc: 3  # number of classes
depth_multiple: 1.00  # model depth multiple
width_multiple: 1.00  # layer channel multiple

# anchors
anchors:
  - [10,13, 16,30, 33,23]  # P3/8
  - [30,61, 62,45, 59,119]  # P4/16
  - [116,90, 156,198, 373,326]  # P5/32

# YOLOv5 backbone
backbone:
  # [from, number, module, args]
  # Two Stream
  [[-1, 1, ResNetlayer, [3, 64, 1, True, 1]],        # 0
   [-1, 1, ResNetlayer, [64, 64, 1, False, 3]],      # 1
   [-1, 1, ResNetlayer, [256, 128, 2, False, 4]],    # 2
   [-1, 1, ResNetlayer, [512, 256, 2, False, 6]],    # 3
   [-1, 1, ResNetlayer, [1024, 512, 2, False, 3]],   # 4

   [-4, 1, ResNetlayer, [3, 64, 1, True, 1]],        # 5
   [-1, 1, ResNetlayer, [64, 64, 1, False, 3]],      # 6
   [-1, 1, ResNetlayer, [256, 128, 2, False, 4]],    # 7
   [-1, 1, ResNetlayer, [512, 256, 2, False, 6]],    # 8
   [-1, 1, ResNetlayer, [1024, 512, 2, False, 3]],   # 9

    ######### Fusion Block #############
   [[2,7], 1, NiNfusion, [1, 1]],          # 10 two stream fuse
   [[3,8], 1, NiNfusion, [1, 1]],          # 11 two stream fuse
   [[4,9], 1, NiNfusion, [1, 1]],          # 12 two stream fuse
  ]


# YOLOv5 head
head:
  [[-1, 1, Conv, [1024, 1, 1]],                  # 13
   [-1, 1, nn.Upsample, [None, 2, 'nearest']],   # 14
   [[-1,11], 1, Concat, [1]],                    # 15 cat backbone P4
   [-1, 3, C3, [1024, False]],                   # 16

   [-1, 1, Conv, [512, 1, 1]],                   # 17
   [-1, 1, nn.Upsample, [None, 2, 'nearest']],   # 18
   [[-1,10], 1, Concat, [1]],                    # 19 cat backbone P3
   [-1, 3, C3, [512, False]],                    # 20 (P3/8-small)

   [-1, 1, Conv, [512, 3, 2]],                   # 21
   [[-1,17], 1, Concat, [1]],                    # 22 cat head P4
   [-1, 3, C3, [1024, False]],                   # 23 (P4/16-medium)

   [-1, 1, Conv, [1024, 3, 2]],                  # 24
   [[-1,13], 1, Concat, [1]],                    # 25 cat head P5
   [-1, 3, C3, [2048, False]],                   # 26 (P5/32-large)

   [[20, 23, 26], 1, Detect, [nc, anchors]],     # Detect(P3, P4, P5)
  ]

