# parameters
nc: 3  # number of classes
depth_multiple: 1.00  # model depth multiple
width_multiple: 1.00  # layer channel multiple

# anchors
anchors:
  - [10,13, 16,30, 33,23]  # P3/8
  - [30,61, 62,45, 59,119]  # P4/16
  - [116,90, 156,198, 373,326]  # P5/32

# YOLOv5 backbone
backbone:
  # [from, number, module, args]
  # Two Stream
  [[-1, 1, Focus, [32, 3]],         # 0-P1/2  320 x 320
   [-1, 1, MV2Block, [32, 1, 2]],   # 1-P2/4
   [-1, 1, MV2Block, [48, 2, 2]],   # 160 x 160
   [-1, 2, MV2Block, [48, 1, 2]],
   [-1, 1, MV2Block, [64, 2, 2]],   # 80 x 80
   [-1, 1, MobileViTBlock, [96, 2, 3, 2, 192]],  # 5 in_channel, dim, depth, kernel_size, patch_size, mlp_dim
   [-1, 1, MV2Block, [80, 2, 2]],   # 40 x 40
   [-1, 1, MobileViTBlock, [120, 2, 3, 4, 480]], # 7
   [-1, 1, MV2Block, [96, 2, 2]],   # 20 x 20
   [-1, 1, MobileViTBlock, [144, 2, 3, 3, 576]], # 9

   [-4, 1, Focus, [32, 3]],         # 0-P1/2  320 x 320
   [-1, 1, MV2Block, [32, 1, 2]],   # 1-P2/4
   [-1, 1, MV2Block, [48, 2, 2]],   # 160 x 160
   [-1, 2, MV2Block, [48, 1, 2]],
   [-1, 1, MV2Block, [64, 2, 2]],   # 80 x 80
   [-1, 1, MobileViTBlock, [96, 2, 3, 2, 192]],  # 15 in_channel, dim, depth, kernel_size, patch_size, mlp_dim
   [-1, 1, MV2Block, [80, 2, 2]],   # 40 x 40
   [-1, 1, MobileViTBlock, [120, 2, 3, 4, 480]], # 17
   [-1, 1, MV2Block, [96, 2, 2]],   # 20 x 20
   [-1, 1, MobileViTBlock, [144, 2, 3, 3, 576]], # 19

    ######### Fusion Block #############
   [[4,14], 1, NiNfusion, [1, 1]],    # 20 two stream fuse
   [[6,16], 1, NiNfusion, [1, 1]],    # 21 two stream fuse
   [[9,19], 1, NiNfusion, [1, 1]],    # 22 two stream fuse
  ]


# YOLOv5 head
head:
  [[-1, 1, Conv, [512, 1, 1]],          # 23
   [-1, 1, nn.Upsample, [None, 2, 'nearest']],  # 24
   [[-1,21], 1, Concat, [1]],           # 25 cat backbone P4
   [-1, 3, C3, [512, False]],           # 26

   [-1, 1, Conv, [256, 1, 1]],          # 27
   [-1, 1, nn.Upsample, [None, 2, 'nearest']],  # 28
   [[-1,20], 1, Concat, [1]],           # 29 cat backbone P3
   [-1, 3, C3, [256, False]],           # 30 (P3/8-small)

   [-1, 1, Conv, [256, 3, 2]],          # 31
   [[-1,27], 1, Concat, [1]],           # 32 cat head P4
   [-1, 3, C3, [512, False]],           # 33 (P4/16-medium)

   [-1, 1, Conv, [512, 3, 2]],          # 34
   [[-1,23], 1, Concat, [1]],           # 35 cat head P5
   [-1, 3, C3, [1024, False]],          # 36 (P5/32-large)

   [[30, 33, 36], 1, Detect, [nc, anchors]],    # Detect(P3, P4, P5)
  ]

#[10,13, 16,30, 33,23]  # P3/8
#[30,61, 62,45, 59,119]  # P4/16
#[116,90, 156,198, 373,326]
